code_base/weights/srcnn_x2.pth (torch_old, 230278 bytes, 5 tensors)

conv1.weight f4 [64, 1, 9, 9]
000000 27 3a 98 39 bf 85 c8 bc 8c 8f 0b bc 65 9d c0 3d
       0.00029035026 -0.024477838 -0.008518111 0.094050206
000010 5e 64 e0 bd d6 4b 39 3e ec 1b 24 bd 88 ab 04 be
       -0.109566435 0.18095335 -0.04006569 -0.12956059
000020 2f ae 97 38 d3 ae 68 3d 82 ed a4 bd cb 00 ae 3d
       7.232685e-05 0.05680735 -0.080531135 0.08496245
000030 09 b5 a6 bd cd e9 ea bd 2d 09 46 3d 3b f8 b3 bc
       -0.081399985 -0.11470375 0.048348594 -0.021968951
000040 53 9e e2 bd 7b 8f 47 3e 5c 45 30 bd 4f 8a 64 3c
       -0.11065354 0.19488327 -0.043034896 0.013948991
000050 ec f4 b2 3d f3 11 64 bb 88 55 6d bc 28 2e e5 3d
       0.087381214 -0.0034800738 -0.014485724 0.11190444
000060 2b a3 08 be 9e 9c 84 bd 4e 48 c5 bd c2 62 49 3d
       -0.13343494 -0.06475185 -0.09632932 0.04916645
000070 b8 f3 0e 3e bb 62 02 be 05 6f cc 3d 4d 7b fb 3d
       0.13960159 -0.12732975 0.09982113 0.12279377
000080 6b 69 aa 3d b1 65 e8 3c b0 f4 06 3e ac 5b 90 bd
       0.08320888 0.028368803 0.13179278 -0.07048735
000090 e7 9e 08 be d6 22 ae bb 29 a3 83 be 35 27 5f bd
       -0.13341866 -0.0053142114 -0.2571042 -0.05448075
0000a0 b9 b5 78 3d 4c b2 31 bd 5a de a8 bb b3 cc 76 3e
       0.06072018 -0.043382928 -0.0051534595 0.24101524
0000b0 65 c2 de bc 7e c9 b6 bc 48 79 61 3d 14 69 ae bd
       -0.027192304 -0.022312876 0.055047303 -0.08516136
0000c0 dd 84 e4 3d a6 3c 4b 3e ec fd 34 3d 96 8c 6e bd
       0.11158154 0.19847354 0.04418747 -0.058239542
0000d0 f7 b6 a4 3d 5d 14 6b 3b c4 a0 15 bc 88 42 3e bd
       0.0804271 0.0035870292 -0.009132568 -0.046450168
0000e0 e8 ef fa bd 2e de 98 3d 01 31 71 bc 54 8b 46 be
       -0.1225279 0.074642524 -0.014721156 -0.19389087
0000f0 78 14 83 bd 3d ec 0c 3e 70 15 e5 bd 22 7c 85 3d
       -0.064003885 0.13761993 -0.111857295 0.06517817
000100 2e ca 08 3d c6 83 d8 3c 01 75 15 bd 94 f1 66 bd
       0.03339594 0.026430022 -0.036488537 -0.05638273
000110 41 96 36 be 28 46 a7 3a b1 c7 fa 3d c4 e1 84 3d
       -0.17830755 0.0012761997 0.12245119 0.06488374
000120 6b 78 89 3b c7 17 7d bd 6f 3b d2 3d 67 e7 25 3c
       0.004195263 -0.061790254 0.10265242 0.010125971
000130 11 48 f3 3b 85 a7 87 bd 43 d6 43 bd 15 00 04 3c
       0.0074243625 -0.06623749 -0.047811758 0.00805666
000140 28 5d 96 3c 2c d3 9d 3c f2 21 a9 bc 31 65 25 3d
       0.018354967 0.019265734 -0.02064607 0.040379707
000150 19 17 e2 3c 9b 71 6a bc 15 1a 1b bd 2b af aa 3d
       0.027598904 -0.014309312 -0.03786667 0.08334192
000160 a5 7d 33 bd 8c 28 fa bc 10 b6 90 bd 09 e6 8b 3c
       -0.043820996 -0.030536912 -0.07065976 0.017077463
000170 0f 1f f6 3b 79 af fd 3d 6d d9 89 bd 86 66 47 3c
       0.0075110267 0.123869844 -0.06730924 0.01217044
000180 8b 5e f9 3d ef 02 bf bc 63 8b ef bc 17 28 24 3d
       0.12176236 -0.023316829 -0.02924127 0.040077295
000190 9c 57 4c 3d 78 5d 03 be 31 03 71 3b 68 af b9 bd
       0.04988824 -0.12828624 0.0036775584 -0.09066659
0001a0 4f 9c 7c bd 08 2d 17 bd 04 63 ab ba 03 e0 9d 3d
       -0.061672505 -0.03690818 -0.0013075774 0.077087425
0001b0 d6 5c 8f 3c f4 5e e3 bd 55 25 f8 3c d6 e6 bb bd
       0.017500322 -0.11102095 0.030291239 -0.09174888
0001c0 63 d0 97 3d 58 b0 a8 3c 7d 70 25 bd 3b 63 09 3d
       0.074127935 0.0205919 -0.04039048 0.0335419
0001d0 5c b2 43 bc bc ca 16 bc eb 83 38 bd a4 d4 01 3e
       -0.01194438 -0.009203609 -0.04504768 0.12678772
0001e0 7c 13 29 bd aa 5d 6a 3d a1 d7 07 3e 6d 8e 02 be
       -0.041278347 0.05721823 0.1326585 -0.12749644
0001f0 b7 71 2f 3d d5 b0 63 bc 70 06 31 3d 6a 9a 31 bd
       0.042833056 -0.0138971405 0.04321903 -0.04336015
000200 c7 be 02 3e c8 d1 66 3e b1 94 6a bd a8 85 ad 3b
       0.12768088 0.22540963 -0.05727071 0.005295474
000210 3c c4 28 3d 85 37 9a bc 70 96 76 3c bc a2 90 bd
       0.04120277 -0.018825302 0.0150505155 -0.07062289
000220 db 4e ac bc d4 31 9e 3d 93 0b 36 3e a3 6f 1b be
       -0.021033695 0.07724348 0.17777853 -0.15179305
000230 b7 a1 97 bd f4 10 d8 3d 14 9d e4 3d 5c f7 4f 3b
       -0.074038915 0.105501086 0.11162773 0.003173313
000240 7f d5 f4 bc 2c ce a4 bd 85 d3 a6 bd c4 ab 22 3c
       -0.02988696 -0.08047137 -0.08145813 0.009928647
000250 93 c7 c8 be af a7 8d be a9 fa b9 bd 7d 0a f1 bd
       -0.39214763 -0.27666995 -0.09081013 -0.117695786
000260 43 4c 2f be 1f 8c 0a 3d f7 04 d9 3d a3 7a ff 3d
       -0.17118935 0.033825036 0.1059665 0.12474563
000270 2e 7a be 3c 5d d1 77 3c 9c 65 68 3d ea bb 62 3e
       0.02325162 0.0151256 0.056737527 0.22141996
000280 92 d8 65 3d 7e be f3 3d 30 8d 74 3c 21 fe 64 3c
       0.05611474 0.11901568 0.01492624 0.013976605
000290 2b 0e 46 3d 72 db 24 3e 53 ae 48 3e 0c cc a6 3e
       0.048353355 0.16099337 0.1959775 0.3257755
0002a0 fe 42 8c 3d 42 92 a8 3d 7c b1 28 3d fb 1c 66 bd
       0.06848715 0.082310215 0.041184887 -0.05617998
0002b0 a8 cc 29 bd cb 8f f1 bc 79 06 53 be 54 d3 32 be
       -0.04145494 -0.029487511 -0.20607938 -0.17463428
0002c0 8c 64 c3 bd e1 5b 1c be b4 ce f1 3d fb e1 a8 bc
       -0.09540662 -0.15269424 0.118070036 -0.020615568
0002d0 a9 d1 2e bc a8 58 13 3d 0c ce dd 3d e9 af 23 be
       -0.010670104 0.03597322 0.10830316 -0.15985073
0002e0 6e d9 f0 bd be 14 0a bd 2e 88 24 be ee 07 44 3e
       -0.117602214 -0.033711188 -0.16067573 0.1914365
0002f0 88 d4 bc 3d 7d 83 0f bd c5 d7 8c 3c 3a f0 8d bd
       0.092202246 -0.035037506 0.01719273 -0.06930585
000300 47 bb 99 3d eb 35 9a 3e cf 15 b1 3c 17 cc d2 bd
       0.075064234 0.3011926 0.021616844 -0.10292833
000310 5e 05 49 3e 4d f7 1b bd 86 34 a6 3d f9 15 89 3d
       0.19630954 -0.03807764 0.08115487 0.06693644
000320 7b f4 12 be 2b aa 09 be ef e2 ad 3d 98 09 ce bd
       -0.14351074 -0.1344382 0.0849055 -0.100604236
000330 32 0a 76 be a3 82 68 3c cc b9 03 be a4 9f 7c bd
       -0.24027327 0.0141913025 -0.12863845 -0.061675683
000340 f4 1f dd 3c 10 93 e9 3d 72 bf 48 bd fb 71 9f bb
       0.026992775 0.11405003 -0.0490107 -0.0048658825
000350 5c 2a ae 3d 2a 46 59 bd df 0f cd 3d ff 91 94 bd
       0.08504173 -0.05304543 0.10012793 -0.07254409
000360 15 9a 95 3c be 16 cf bd 92 46 23 3d 58 ba b5 3d
       0.018261949 -0.101117596 0.039862223 0.08873433
000370 a0 e8 a0 bd a5 7a 05 be fc 54 b3 3d 18 73 0a 3d
       -0.0785687 -0.13035066 0.08756444 0.03380117
000380 d3 7e 50 3c 39 f2 8b 3b d9 ae 95 3a 15 f0 9a bd
       0.01272555 0.0042708186 0.0011419907 -0.07565323
000390 07 dd d0 3d bc ae f9 3c 10 fe a8 bd 6e 78 c5 3c
       0.101984076 0.030478828 -0.082515836 0.024105277
0003a0 17 8b 2e bd e5 25 51 3d 21 a2 05 3d 99 e9 1c bd
       -0.042613115 0.05106153 0.03262532 -0.038308714
0003b0 21 d3 0a 3d 31 cf 4e 3d 63 8e 04 be 6c d6 57 3d
       0.033892754 0.050490562 -0.12944941 0.052694723
0003c0 34 f1 9c 3d 79 40 e5 bd 72 bf 91 bb 9d f8 03 bd
       0.07663193 -0.11193938 -0.004447871 -0.032219518
0003d0 78 c1 38 3d ea f1 af 3d a6 5a a2 bd 71 b6 68 bd
       0.04510638 0.08591063 -0.07927446 -0.056814615
0003e0 2a 6b f5 3c 3a fd 02 3b 1a 28 db 39 16 a8 8a bb
       0.029958326 0.001998736 0.00041800813 -0.004231463
0003f0 5d 1f c0 3d 03 54 02 be 4c 32 2c bd 37 2e 76 3c
       0.09380982 -0.1272736 -0.042040154 0.015025667

conv1.bias f4 [64]
000000 1f f4 77 3b 12 58 73 3b ce 83 b3 bc 79 4c 62 be
       0.0037834716 0.0037131351 -0.021913435 -0.22099485
000010 92 fc 92 3c 8c 37 59 3b bb 13 05 3e b0 2b b1 bc
       0.0179427 0.003314468 0.12995808 -0.021627277
000020 33 2f 05 3d 3f 75 a0 bd ac cd 8e ba a4 70 3e 3d
       0.032515716 -0.07834863 -0.0010895035 0.04649414
000030 be 50 8f 38 e9 17 57 3c d1 e5 04 3d 9b 3b 6c 3d
       6.833811e-05 0.013128259 0.032445733 0.05767403
000040 09 e7 06 bd a5 22 d2 bb 4c ad b2 3c 7a 3a b7 3d
       -0.032935176 -0.0064128214 0.02181115 0.089467004
000050 01 7b 14 3c 48 e9 5c 3c b8 93 58 bc 7f 3e f6 3c
       0.00906253 0.013483353 -0.013218813 0.030059097
000060 ac 9f b2 3b 35 0d 15 bb dc 96 56 bb f3 33 87 3b
       0.0054511633 -0.0022743468 -0.0032743728 0.004126066
000070 c7 86 a2 3c d0 13 78 3a 7b 22 bd 3d ce 7a 22 3d
       0.019839657 0.00094634015 0.09235092 0.039667897
000080 02 ab 92 3b ea 15 94 3b 3d 83 f8 bc 10 8f 92 bd
       0.004475952 0.004519214 -0.030336017 -0.07156193
000090 94 4c 9c bb ef 30 25 3e 47 be 98 bb fe fe b9 3c
       -0.004769871 0.16131948 -0.0046613547 0.022704598
0000a0 14 c9 4c bc cf 86 7e 3c 27 8a 25 3e 45 bc be 3c
       -0.012499113 0.015535071 0.16165982 0.023283133
0000b0 f6 d5 3b bc 71 d9 7b 3d 56 8c 4c bc af 0e 42 3d
       -0.0114645865 0.061486665 -0.012484631 0.047377285
0000c0 6e 2c 30 3c 44 89 85 3d db 48 84 bc 8e 0c aa 3b
       0.01075278 0.06520322 -0.016148021 0.005189485
0000d0 c7 ad 00 3d 7c c1 e4 bb 23 5b d7 3b 02 b5 42 3c
       0.031415727 -0.006981073 0.0065721436 0.011883976
0000e0 56 e7 e2 bb 40 aa 09 bd 57 e1 08 bc 84 56 98 3e
       -0.00692455 -0.03360963 -0.008354506 0.29753506
0000f0 dd 82 45 3c 8b f0 bc bb 66 65 82 bd aa d9 ce bd
       0.012055126 -0.0057659796 -0.063669965 -0.1010011

conv2.weight f4 [32, 64, 5, 5]
000000 37 a7 c1 3d 08 d0 a7 3d 64 11 ef 3d 12 bc 71 3d
       0.09455722 0.08193976 0.11673239 0.05901725
000010 3b 48 8a bb c8 a9 45 3c da 99 4e bd 65 e2 d9 3d
       -0.0042200363 0.012064405 -0.050439693 0.106388845
000020 78 c7 94 3c f8 0c 05 3e 42 0c c7 bc d7 e5 ff bd
       0.01816152 0.12993228 -0.024297837 -0.1249501
000030 e8 3b c0 3d 4d 89 33 bd 6f 0d e2 3d e8 ef 0b bd
       0.09386426 -0.043832112 0.110377185 -0.03416434
000040 a7 14 96 bd 75 b0 f2 3c 51 6f c7 bc 12 f0 c6 bd
       -0.07328158 0.029625157 -0.024345072 -0.097137585
000050 84 f9 65 bd 82 0c a2 3b 04 12 4a bd 1f 5b f1 3d
       -0.05614616 0.0049453387 -0.049333587 0.11784958
000060 de 9f 1c bd d1 da e9 bd 4f 0d b5 bc dd f9 4d 3d
       -0.0382384 -0.11418689 -0.022101073 0.050287116
000070 4e ea a6 3b a3 5e d5 bd 68 ed 81 3c 4e 35 03 bd
       0.0050938493 -0.10418441 0.015860274 -0.032033257
000080 fd ec 6b bd 85 52 9e 3c 1e c3 a6 bc 51 be 79 3d
       -0.057599057 0.019326458 -0.020356711 0.060972515
000090 23 76 36 bd 17 1d 8b bd 33 d1 cb 3c 02 12 82 3d
       -0.044546258 -0.06792658 0.024880027 0.06351091
0000a0 60 d3 82 39 ce fc a6 3d 53 17 56 bd 08 99 84 bd
       0.0002495302 0.081536874 -0.052268337 -0.06474501
0000b0 5c ad 24 bd 78 f5 18 3c 82 43 2c 3e 71 74 b5 3d
       -0.04020439 0.009335868 0.16822627 0.088601
0000c0 2d a3 22 bd 5e 0a 0a 3d 00 87 b5 bd a4 1b 70 3c
       -0.039706398 0.033701293 -0.0886364 0.014655028
0000d0 17 c3 e5 bd 05 a0 e6 bc fa 65 9b bc a4 ea 6b 3d
       -0.11218851 -0.028152475 -0.018969525 0.057596818
0000e0 15 26 33 3d 09 46 27 3e a7 e2 35 3e 25 ed ee 3c
       0.04373749 0.1633531 0.17762242 0.029165814
0000f0 12 8f 50 bc f7 3a c3 bd 8a e0 1e be a8 5d eb bc
       -0.012729423 -0.09532731 -0.15515342 -0.028731182
000100 c3 0f 26 bd 39 f0 a9 bd 57 0b c5 3c e8 88 9f bc
       -0.040542375 -0.08297772 0.024053259 -0.019474462
000110 18 b4 a3 bc 0e 78 4d 3d 32 e4 29 3e 4e 1f fb 3c
       -0.019983336 0.05016332 0.16590956 0.030654576
000120 01 e5 92 3d a6 64 2c bd 3f d8 3e 3d 9a 44 20 3d
       0.07172585 -0.042088173 0.046592947 0.039127924
000130 b2 be 14 be 20 9e 61 3d 2d e0 91 3d bc 70 68 3d
       -0.1452587 0.05508244 0.07122836 0.056748137
000140 27 94 9c bc 47 f6 92 3c be 93 60 3c 1d 46 03 3b
       -0.019113613 0.0179397 0.0137070995 0.0020030804
000150 02 f7 76 3d 61 e6 0e be 75 49 44 3d ba e6 af 3d
       0.06029416 -0.1395507 0.047921617 0.085889295
000160 94 14 81 3c 5c fb b8 bb 95 e2 0c bd 5a dd 98 3d
       0.015756883 -0.0056451987 -0.034395773 0.074640945
000170 8e 53 c8 3d 02 8a 8b bd 48 6a 19 bd d1 db 8c 3d
       0.09781562 -0.06813432 -0.037454873 0.06877864
000180 39 58 71 bb 41 be 75 bd 4b cd 91 3d a6 fc 2d bd
       -0.0036826266 -0.059995893 0.07119235 -0.042477272
000190 ab 3a 69 3c e1 a1 2a bd 9d ee 1c 3e b5 ba 72 bd
       0.014235179 -0.041658286 0.15325399 -0.05926009
0001a0 5f bc 42 3d 0f 4c 9f bd 41 38 7e bd 88 2a 6e 3d
       0.047542926 -0.07778179 -0.062065367 0.05814603
0001b0 16 05 d5 3d 7f 36 3a bd 10 82 2e bc 32 cb 2a be
       0.10401361 -0.045462128 -0.0106511265 -0.16679075
0001c0 4b 91 9f 3d 79 a7 44 3d c8 58 bc 3d 42 fc 83 bc
       0.07791384 0.048011277 0.09196621 -0.016111497
0001d0 41 b9 fd bd 85 c4 b4 3d 59 8e ad 3b e3 74 dd 3c
       -0.1238885 0.088265456 0.00529651 0.027033275
0001e0 f4 00 d0 bd 36 ad db bd 58 a7 3e 3d b8 4d 46 3d
       -0.10156432 -0.10726397 0.04654631 0.048413962
0001f0 96 6b ff bd d1 dc bf bc e9 b7 f0 3b ef ff d8 bd
       -0.12471692 -0.023420723 0.0073461425 -0.105956905
000200 58 5a 8c 3d b8 59 1b 3d 2f 4f 6b bc f5 d6 0b bc
       0.06853169 0.03792736 -0.014362141 -0.0085351365
000210 84 08 30 3d 3a 31 80 3d f2 1d b3 bc fd 10 1e 3d
       0.04297687 0.06259389 -0.021864865 0.03859042
000220 44 2c 83 bd 69 79 56 3d 97 6e a3 bc 28 09 69 3c
       -0.064049274 0.05236188 -0.019950194 0.014223374
000230 2a 81 d7 bc 13 e1 45 3c 3c 4f 1c 3d d2 60 2d bd
       -0.026306707 0.012077588 0.0381615 -0.042328663
000240 e2 0a 75 3d 8d 76 df bd 1a 6a 66 3d 06 5c 63 3d
       0.05982483 -0.10911284 0.05625353 0.055507682
000250 98 61 a8 bd 04 ed 0e 3d 77 4c 16 3c 68 4e e8 bc
       -0.082217395 0.034894004 0.009173504 -0.0283577
000260 9d d5 b0 bc 9e 99 7f bd 78 64 10 bd 68 56 39 3d
       -0.021586234 -0.06240236 -0.035252064 0.04524842
000270 b2 57 4c 3d 6a 46 43 bd 1e 81 f5 bd c3 32 f9 3d
       0.04988832 -0.047674574 -0.11987518 0.12167885
000280 ac a3 b1 3c 1a 73 32 3d 3e 33 1b 3d f6 37 87 ba
       0.02168449 0.0435668 0.037890665 -0.001031636
000290 64 8a 26 bd b1 fb 2e bd 7f be 06 be 21 9a 23 3c
       -0.040659323 -0.0427205 -0.13158606 0.009985478
0002a0 9b 11 8e bb 92 1c 95 bd a1 c8 c3 3c b3 59 b8 3c
       -0.004335595 -0.0728084 0.023899378 0.02250371
0002b0 8a 90 0b 3e fe 8a c4 3d d4 2c b5 bd 91 2f 36 3d
       0.13629356 0.09596823 -0.08846441 0.044478957
0002c0 23 a5 6d bd df d5 89 bd 53 07 09 bd 8d f4 87 3c
       -0.058018815 -0.06730246 -0.03345425 0.016596103
0002d0 99 d0 2a 3d 14 e1 45 3d 90 5f 4b 3d 4d a3 7a 3b
       0.04170284 0.048310354 0.049651682 0.0038244308
0002e0 64 e9 fb bd b3 4a cf bc 68 8a 52 3c c2 7c 55 bd
       -0.12300375 -0.025304174 0.012850381 -0.05212093
0002f0 11 fd b5 bd 9e d2 1e be 3c 06 94 bd c5 89 85 bd
       -0.08886159 -0.15510032 -0.072277516 -0.06520418
000300 cd fc 33 3c cb 9b 4c 3c a1 3b 0e be 8c 70 82 bc
       0.010985565 0.012488316 -0.13889934 -0.015922807
000310 5a 88 94 be fd c5 3f be c4 a0 49 3c f1 41 f3 bd
       -0.29010278 -0.1872787 0.012306396 -0.11877812
000320 5d b7 a3 bd db 72 12 3d 8e a8 34 3c 2b 0b 9b bc
       -0.07993958 0.035754066 0.011026515 -0.018926224
000330 50 c8 27 3d fe 91 26 3d 33 c1 e5 3d c1 d5 9f 3d
       0.040962517 0.040666573 0.112184905 0.07804442
000340 eb 14 8d bc 01 2c 91 3b 64 cf 6b 3b 69 c4 01 bd
       -0.017221889 0.0044302945 0.0035981769 -0.031681452
000350 c3 f6 87 3d c4 45 ef bc 4e 0f 51 bd de 32 93 3d
       0.06638863 -0.029208072 -0.051039986 0.071874365
000360 a2 9e ce 3c 80 bb 53 3d d1 ea 00 bc 69 a0 95 bd
       0.025222126 0.051692486 -0.007868485 -0.073059864
000370 47 48 4e bd 9b 2a c5 3d 95 06 df bc d3 75 c8 bc
       -0.050361898 0.09627267 -0.027224818 -0.024470245
000380 91 d7 f0 3b 41 8a 6b bb ee 58 10 bb 08 3e 9f bb
       0.0073499163 -0.003594056 -0.0022025662 -0.0048596896
000390 a4 aa b3 bc 62 20 0a 3d b6 4b ba ba 81 e5 3d bd
       -0.021931954 0.03372229 -0.0014213237 -0.04636145
0003a0 d8 c0 9c 3d 67 0e e2 bc bf 79 7c 3b f4 cd 10 3d
       0.076539695 -0.027594758 0.0038524715 0.035352662
0003b0 8c 94 1c bd 92 86 25 3c 2c 7d ee bd a5 6d 62 3d
       -0.038227603 0.010102885 -0.116449684 0.055280346
0003c0 b6 ad 87 bc ee 3f 51 bd 30 6b 02 3c f8 c4 16 be
       -0.016562324 -0.05108636 0.007960126 -0.14723575
0003d0 96 6a 8c bc 7d a1 fb 3c d5 16 d8 bd d5 07 bc bd
       -0.017140668 0.030716652 -0.1055123 -0.09181181
0003e0 3b 4d 01 bd 45 e9 44 bc bc a8 16 bc 17 9f 9f 3c
       -0.031567793 -0.012018506 -0.009195503 0.01948504
0003f0 d0 47 11 3d 82 88 ec ba 53 6d ed bc db a9 83 bd
       0.035468876 -0.0018046054 -0.028982794 -0.06428882

conv2.bias f4 [32]
000000 f1 c7 5a 3c 04 57 b1 bd fa 69 47 bb 93 fc 0c 3d
       0.013353334 -0.08659175 -0.0030428157 0.03442056
000010 ef c9 cf 3c 4c 34 94 bb 04 40 8b bc 4a 12 4c 3c
       0.025364844 -0.004522836 -0.016998298 0.012455532
000020 38 a7 f6 3c 9c b7 7c 3c 32 8a 70 3d a3 c1 d4 bc
       0.030109033 0.015424635 0.058725543 -0.02597124
000030 78 87 27 3d f3 22 78 3c aa 04 c8 bb 96 4c 6b 3d
       0.040900677 0.015145051 -0.0061040716 0.057446085
000040 c0 6d c2 3b f7 2b 48 3b d2 60 0e 3d 47 65 03 3d
       0.0059334934 0.0030543783 0.034760304 0.032079007
000050 de 09 38 bc 22 de 36 3d 83 f2 39 bd be c1 09 3d
       -0.011232821 0.044645436 -0.045397293 0.033632033
000060 05 ca c4 ba f8 c3 31 3d 1b 9c b1 3c 8e 68 6a 3c
       -0.001501382 0.04339978 0.021680882 0.014307154
000070 b2 f9 93 3c 00 50 1d 3b 25 90 72 3c 5c 7e ce 3c
       0.0180634 0.0024003983 0.014804875 0.025206737

conv3.weight f4 [1, 32, 5, 5]
000000 90 bf b6 bb 27 aa e3 3c 30 0d 1c 3c 4d 23 1e ba
       -0.0055770352 0.027791096 0.0095246285 -0.0006032482
000010 b9 b6 bf 3c 75 dd 8c bc 37 e2 68 3d 57 88 3b bd
       0.023402559 -0.017195443 0.05685636 -0.04578432
000020 b1 cb ea bc c3 26 d2 3c 79 da 14 bd e1 e5 71 3d
       -0.02866158 0.025653249 -0.036341164 0.05905712
000030 3f b4 7b bc 39 1f 7c bd f8 15 9b 3c b8 14 8e bc
       -0.015362798 -0.061553214 0.018931374 -0.017343864
000040 ad 73 3b bc 3a c5 a8 3c 13 bb f1 bb 67 8f 4c 3c
       -0.0114411535 0.020601857 -0.0073770373 0.012485362
000050 9c cc 59 3b 0b 3b fd 3a c7 17 06 3c 68 ba 6e 3c
       0.003323353 0.0019319964 0.00818438 0.01457081
000060 71 09 fe bb c9 17 1e 3c bf 83 60 bd 0a 5a 8b 39
       -0.0077525903 0.0096492255 -0.054813143 0.0002657923
000070 45 3a af 3c 60 ee f2 bc 8f 6e b9 3c 2c 27 8f bc
       0.02139009 -0.029654682 0.022635726 -0.017474733
000080 34 c3 a4 3c 6c 1f 3d 3b 2b d8 49 3b 2d 2f 93 bc
       0.020112611 0.002885784 0.0030799012 -0.017966831
000090 42 37 fe 3c 11 d7 c0 3b f8 14 c0 3c f3 69 3a bc
       0.031032208 0.005885013 0.023447499 -0.011377799
0000a0 c3 6a eb 3a 8e 29 2f bd 88 29 2c bd 01 10 34 bb
       0.0017960895 -0.04276424 -0.042031795 -0.002747536
0000b0 14 1b 27 bb ca 3b c5 3c 0b a5 a2 3c 9e 27 df 3a
       -0.0025498318 0.024076361 0.01985409 0.0017025357
0000c0 5e ec 2c 3c 1e 61 81 3c 31 b9 5c bc 6a 4a 40 bc
       0.010554401 0.01579338 -0.013471887 -0.011736492
0000d0 71 0b db 3c 84 7e f0 bc ce 2f 8c bc 0c 13 9d bc
       0.026738854 -0.029357202 -0.017112639 -0.019174121
0000e0 0b 87 f7 bb f4 4a d6 bc 0b 0c 0c 3c da 66 ca bc
       -0.00755394 -0.026158787 0.008547793 -0.024707247
0000f0 5a 67 80 bc 32 b7 0c bd 8d 8c c1 3c 6b 44 b0 bc
       -0.015674282 -0.034354396 0.02362659 -0.021517
000100 f8 8b 8a bb bd 65 ae bc 10 93 9e bb 36 4d e5 bb
       -0.0042281114 -0.021288747 -0.0048393086 -0.0069977297
000110 9c 78 39 bc 5d 76 01 ba 07 3e 78 3c 04 ba ee 3c
       -0.011320259 -0.0004938597 0.015151507 0.029141434
000120 a3 df d5 3c 9f da d6 bc 1d 3b 86 bb a9 62 ac bc
       0.026107615 -0.026227294 -0.0040964023 -0.021043139
000130 7a 09 10 bd 56 0b 1b bd a5 db 00 bc d5 f3 09 bc
       -0.035165288 -0.037852608 -0.007864867 -0.0084199505
000140 46 77 38 3c 5b 2d 9c 3c b0 e6 c4 bc d4 71 20 bb
       0.011258906 0.019064596 -0.024035782 -0.002448191
000150 5d a4 b6 3b de 80 67 3c da b2 6c 3d 66 6c ff 3d
       0.005573793 0.014129845 0.057787754 0.12471847
000160 62 b4 fd 3c 5c d5 e1 3a 4f b0 20 bc 5b f5 b7 bd
       0.030969802 0.0017229724 -0.00980766 -0.08982345
000170 83 8b 87 bd d7 8b 17 bc ad 59 f2 bc 36 e9 b9 3b
       -0.066184066 -0.009249649 -0.029583776 0.005673553
000180 6f 2e c3 3b 35 4a 6b bc 2f af 2e bb 2b 2b b1 3b
       0.005956463 -0.014360954 -0.002665471 0.0054067574
000190 12 b0 ca 3a ec 42 93 3b 40 6a 41 3c e7 fb be bb
       0.001546385 0.0044940617 0.011805117 -0.005828369
0001a0 4c d2 e2 3a b7 5b 40 bc 84 64 f2 3c db 47 76 ba
       0.0017305105 -0.0117406165 0.029588945 -0.00093948626
0001b0 23 e8 be 3c 72 16 bf bc b9 bf f8 bc a6 fb 62 3b
       0.02330405 -0.023326132 -0.030364858 0.0034634857
0001c0 97 a6 05 bd db f5 a4 3c 28 29 9e 3c 19 44 d1 3c
       -0.032629576 0.020136764 0.019306734 0.025545167
0001d0 2b 85 ea 3c 36 6a 26 3c 74 a8 32 3c 4b a4 07 bc
       0.028627953 0.010157159 0.01090442 -0.008278917
0001e0 70 ad f2 3c ea c3 37 3c 75 49 37 bc 50 04 15 bd
       0.029623717 0.011216143 -0.011186947 -0.036381066
0001f0 98 fa be 3a d2 5b 8f bc a9 c1 c2 3c 9a 0b 1c 3d
       0.0014570532 -0.017499838 0.023773985 0.038097
000200 df 07 f5 3c ec 03 4f bc bf 59 87 bc c1 56 66 bc
       0.02991098 -0.012635212 -0.016522286 -0.01405877
000210 01 06 22 bb e4 dc 1c bc 7f 5d 22 bd 9e 85 41 bc
       -0.0024722817 -0.009574149 -0.039639946 -0.011811642
000220 ab 8a 92 3c 81 ff 8a bc b0 53 5e bb 1e 4b 4b 3c
       0.017888388 -0.016967537 -0.0033924393 0.012408046
000230 94 04 0f 3d 1d 66 14 bc 22 d0 e0 bc dc 85 48 3d
       0.034916475 -0.009057549 -0.027442995 0.048955783
000240 91 16 55 3b 08 f0 c8 3c 10 17 02 bd c8 a8 23 bd
       0.0032514671 0.024528518 -0.031760275 -0.039955884
000250 e1 26 14 3d 27 07 25 bc 89 60 18 3b 3c 9f 83 bb
       0.03616989 -0.010072506 0.0023250899 -0.004016785
000260 7d 18 93 3b 5d 84 f9 bb c4 7b 2a bc 9d 14 23 3c
       0.004489003 -0.007614656 -0.010405485 0.009953645
000270 90 fe 8e 3c dc a4 54 bc f2 fb bf 3c b3 ca 11 3d
       0.01745537 -0.012978759 0.023435567 0.0355937
000280 26 1d 30 ba 2f dd 01 bc ca 6e 28 bd d6 0e 08 bd
       -0.00067182106 -0.007926269 -0.04112128 -0.033217274
000290 f7 6c 88 bc 81 9a 4d bc 57 a8 e2 3c 9e d7 84 3c
       -0.016653521 -0.012549044 0.027668161 0.016216096
0002a0 44 b6 ef 3c 42 3c cf bc 86 17 b1 bc cd dd 05 3d
       0.029261716 -0.025297288 -0.021617662 0.03268223
0002b0 3b 7e 9b bc 2a 40 93 3c 6f ae 94 3b ef b6 ad bb
       -0.01898109 0.017974932 0.0045373957 -0.0053013484
0002c0 7b b6 c5 3c 00 09 dd 3c 65 75 82 bc dc ad 5c bb
       0.024134865 0.02698183 -0.015925119 -0.0033672964
0002d0 15 7c 02 3d 4d 50 ea 3c 83 71 64 3c 46 2c b7 bc
       0.031856615 0.028602744 0.013943079 -0.022359978
0002e0 9b 42 cf bc 8e 37 c7 3c 0c 5e a1 3c 10 07 5e bb
       -0.025300315 0.024318483 0.019698165 -0.0033878721
0002f0 cb 7f 0b 3d d4 cc be 3c 18 e5 08 bc 19 5a 74 3c
       0.03405742 0.023291029 -0.008355401 0.014914059
000300 5d 7e 0f 3d 43 7b aa 3c 10 9f 94 bc 34 04 0d bd
       0.03503262 0.020810729 -0.018142253 -0.034427837
000310 3c aa 25 3c 23 f2 58 3c 44 7d 10 bd 72 a6 92 3b
       0.010111388 0.013241324 -0.035275713 0.0044754082
000320 df 35 60 bc 9c fe 42 3d d6 47 a3 bb 74 e6 0d be
       -0.013684719 0.047606096 -0.0049829287 -0.13857442
000330 d8 9f b7 3d de d2 8a 3d c8 a0 b4 3d 4b c7 ff bc
       0.08966035 0.06778501 0.08819729 -0.03122296
000340 f5 52 7d bd 25 06 44 3e 36 ea 91 bd c2 a0 a9 bc
       -0.061846692 0.19142969 -0.0712475 -0.020706538
000350 3e 2a e9 bc a0 fa 75 bd 4b 24 3d 3d 42 3a 91 bc
       -0.028462525 -0.060053468 0.04617719 -0.017727975
000360 cf f3 7a 3d 8c 53 12 bc 4b 47 b1 bd fc 9b 0c bd
       0.06126767 -0.008931052 -0.08656176 -0.034328446
000370 e2 af 71 3d 53 9d 8f 3c f9 fc 13 bc 3d 80 dc 3c
       0.059005626 0.017531073 -0.009032481 0.026916618
000380 7e cd 88 3d d2 8e b5 3c f3 31 c5 bc a8 ef e9 3c
       0.066798195 0.022162829 -0.02407167 0.02855666
000390 25 09 ef 3c ea 31 2c bc cf 1d da 3c b2 f8 23 3c
       0.029179165 -0.010509947 0.026625542 0.010008024
0003a0 06 fa 45 3d db d0 00 3d cc 58 6a bc 95 2e cd 3b
       0.048334144 0.03144918 -0.014303397 0.0062616565
0003b0 40 b7 19 bd 7e f6 98 bd 52 82 92 3b 40 bc bc bb
       -0.037528276 -0.0746889 0.004471102 -0.005759746
0003c0 8f 0f d9 bc 82 62 c5 bb 00 67 e7 bc d2 17 60 bc
       -0.026496677 -0.006023706 -0.028247356 -0.013677554
0003d0 38 ff 04 3c 36 f1 3f bb d2 2b 3e 3d bc bc 4c 3d
       0.0081174895 -0.002928806 0.04642851 0.04998468
0003e0 e2 88 2a bb 08 de a3 3b 66 62 a1 3b 7e 1f cf 3b
       -0.002602153 0.0050008334 0.00492506 0.006320893
0003f0 e2 2b 65 3c 7a 8f 70 ba 85 b1 c9 bb 91 31 db ba
       0.013987513 -0.0009176653 -0.006155195 -0.0016723146
